data_processed/scaler_params.npz (npz, 1256 bytes, 3 tensors)

mean_ f8 [10]
00000000: 6db5 b7c2 c0e6 8abf 31ee c4cb 1f5c 7abf
00000010: a91c a29e 8729 64bf cf11 f4fe 84ad 8d3f
00000020: f5a6 43a9 0483 893f e3de 94d7 7bd1 743f
00000030: c4d8 db7f e399 8d3f 316e c760 aac4 70bf
00000040: a32d 9a03 6994 81bf cf91 acda 594b 70bf
-0.013135438864049854 -0.006435512736341618 -0.002461209184790276 0.01449111846023579 0.012456928649459334 0.005082591779959708 0.014453675593795963 -0.004093804873686533
-0.008583851263458458 -0.003978110306693996

scale_ f8 [10]
00000000: f303 bc96 9aa5 ef3f a522 5e44 e7ff ef3f
00000010: 8ae6 d323 5203 f03f 1cf5 402a 3122 f03f
00000020: ba6f 5b7d 3c04 f03f 42af 8b3b c708 f03f
00000030: c9af 036e 7cea ef3f d548 301f d6ff ef3f
00000040: cb06 f745 8b08 f03f 59c8 bd1e bed7 ef3f
0.9889653152496279 0.9999882064158397 1.0008107566376645 1.0083476686989519 1.0010342499508469 1.002143128013771 0.9973737858504076 0.9999800309326711
1.0020859463697203 0.9950857735077633

var_ f8 [10]
00000000: 2888 2989 344c ef3f 0863 cf88 ceff ef3f
00000010: 16ec 1af8 a406 f03f 8891 0c66 ab44 f03f
00000020: 2f3d da19 7a08 f03f 43c4 0348 9311 f03f
00000030: 98f0 d352 07d5 ef3f e95f 973e acff ef3f
00000040: 7255 f01b 1b11 f03f 8c57 b6e2 aeaf ef3f
0.9780523947667961 0.999976412970768 1.0016221706016544 1.0167650209706114 1.0020695695746544 1.0042908490252251 0.9947544687015748 0.9999600622641057
1.0041762439116977 0.9901956966375436
